Model/LeNet5.pth (torch, 252487 bytes, 10 tensors)

weight f4 [6, 1, 5, 5]
00000000: 2b9c a3bd 538a b03e cd11 513e 706a 8e3e
00000010: 48f1 9abe d4cc 8f3d bb04 853e 4c55 c03e
00000020: d5de a13e 773f a6be 4f05 8d3e 5f0b df3e
00000030: 72e3 9b3e 8ce4 3f3d f00c 16be d48d 34bd
00000040: 195a b03e 2bb6 2e3d 3063 52be 6a98 4fbe
00000050: 5011 babe e58a 01be 3fb7 80be 2490 b5bd
00000060: 7fa1 b6be 1f30 36be 8078 08be e68d 50be
00000070: 75b9 aabd 15c2 9cbe e17c 153e 7293 9ebe
00000080: 21f6 8dbd 9fdf e8bd 2fc3 b7bd b004 023f
00000090: 3c36 b63e 936c bd3e 7419 8a3e 710e 8c3e
000000a0: d5f8 0e3f 0157 ec3e 687e 013f 6ab2 193f
000000b0: 6a10 0d3f 9364 86be 4fad 61be c3ab d0be
000000c0: 8b7c 4bbe 3059 ebbd 28f2 3cbe e676 dbbc
000000d0: 072a bfbc e800 fc3e fc74 103f 43a0 03bd
000000e0: 7fba 393e 7712 733e e977 9b3e af3f 563b
000000f0: 5b4a 42bd ddef dfbc a2ea 643d c394 c9be
00000100: 6680 83be 193a aabd 4a62 1d3e e041 99be
00000110: 9d4c 20bf 9877 0cbf 5dd0 e03e 2982 943e
00000120: 06a5 5a3e 407e c8be 2d3d a1be f060 ecbe
00000130: aa28 01bf dfd9 f03d bb93 293e 37d2 903e
00000140: 01a1 e9be 7e8c dcbe f618 453d e2d9 5abd
00000150: ed9b 943e da52 e73d c880 703e 945f 53be
00000160: 7dca 60be d3d0 403d 1862 aa3e cc56 093e
00000170: 780e ff3d d225 86bd 5ac2 d6be a905 ff3b
00000180: f2ff 723e 4290 eabc 5cfc 7cbe 9d20 fdbe
00000190: 0e60 263e 6023 8e3e 9241 c93c 6d25 09bf
000001a0: f24a cabe 3784 f3bc 1569 73bd ec90 81bd
000001b0: d527 0fbf bdd2 34be b7c5 943e bba4 c83d
000001c0: 0d5b 3c3d 3699 22bf cff9 143e 0e45 f63c
000001d0: e425 f93c 1ff9 c4be f303 19bf 61f4 843e
000001e0: 9a29 803e 9ddb 643d 82f2 8abe a5b9 0abf
000001f0: ad37 c13c 84c8 c8bd 5dfc 303d d213 553d
00000200: cfd0 a23e ab7c 9abd b4c9 cf3c 5e0e b0be
00000210: e47a 3bbf 5437 9fbe fb4a bcbe 4dd4 04be
00000220: 5983 02bf 6273 19bf 34d7 34be b31e edbd
00000230: 170f 8f3e 8028 a8bd e0c2 9c3e 3400 c13d
00000240: 64ff 473e a55f f33e d47b de3e bbb8 013f
00000250: 425d e83e d5fb d8bc
-0.07988771 0.34480533 0.20416947 0.2781558 -0.30262208 0.0702149 0.25980172 0.37565076
0.3161532 -0.32470295 0.27543113 0.43563363 0.30446965 0.04684882 -0.14653373 -0.04408057
0.3444374 0.042654198 -0.2054565 -0.20272985 -0.36341333 -0.1265064 -0.25139806 -0.08865383
-0.35670087 -0.17791794 -0.13327217 -0.2036663 -0.08336154 -0.30616823 0.14598419 -0.30971867
-0.06931711 -0.11370777 -0.08972775 0.507884 0.35588253 0.36996898 0.26972544 0.27354768
0.5584844 0.4616013 0.50583506 0.60037863 0.5510317 -0.26248607 -0.22038768 -0.40756044
-0.19871728 -0.114916205 -0.1845175 -0.026790094 -0.02333547 0.4921944 0.56428504 -0.03213526
0.18137549 0.23737513 0.30364922 0.0032691767 -0.047434192 -0.027336055 0.055887826 -0.3937131
-0.25683898 -0.083118625 0.15369526 -0.2993307 -0.626169 -0.54869986 0.4390897 0.29005554
0.21352014 -0.3915882 -0.31491986 -0.46167707 -0.50452673 0.117603056 0.16560261 0.2828538
-0.4563065 -0.43075937 0.048119508 -0.053430445 0.29025212 0.112950996 0.23486626 -0.20641929
-0.21952243 0.04707415 0.33277965 0.13412017 0.124539316 -0.065501824 -0.41945153 0.007782657
0.23730448 -0.02863324 -0.24705642 -0.49438944 0.1624758 0.27761364 0.0245674 -0.5357273
-0.39510304 -0.02972613 -0.059426386 -0.0632647 -0.55920154 -0.17658515 0.29057094 0.09797045
0.04598527 -0.6351503 0.1454842 0.030062225 0.030413575 -0.38471314 -0.5977165 0.25967696
0.2503174 0.055873502 -0.27138144 -0.5418952 0.023586119 -0.0980387 0.043209422 0.052020855
0.31799933 -0.0754331 0.025364734 -0.3438596 -0.7323439 -0.310969 -0.36775956 -0.12971611
-0.5098167 -0.59941685 -0.17660218 -0.11578121 0.279412 -0.0821085 0.30617428 0.09423867
0.19531018 0.47533908 0.43453848 0.506725 0.4538365 -0.02648727

bias f4 [6]
00000000: 19dc 933e 82bb 413e 3c64 57bd 295f 60bc
00000010: da28 34be 4de4 35be
0.2887886 0.18919185 -0.052585825 -0.013694563 -0.17593709 -0.17762871

weight f4 [16, 6, 5, 5]
00000000: ab7b 263e 1a57 203e 9ca7 143e c637 49be
00000010: 587f 9bbd 4b13 503e 61a9 673e 5a1b 353e
00000020: 48ef 8c3d d7e3 8bbe df53 04bd 99c3 913d
00000030: 5ac7 b43e 92a4 093d 31ea b1be e2be 84bd
00000040: e217 febd fda7 bc3e f41f b83d eb29 9ebe
00000050: 8ab5 08bd ace9 d13d 731c ee3e 47bd 0f3e
00000060: 8fc0 61be 034f 4c3e 46cd 6e3e 9a8c 513e
00000070: a09f b23d 0bea 83bd c834 10be cd23 0a3e
00000080: dd8a e63d 48b1 1bbd ae69 a9be cc01 5abe
00000090: 8b02 703e 445f 623e 8b7b 94be e791 16bf
000000a0: 5a04 3e3d 66c0 1f3e 56e3 a43d df66 51be
000000b0: 8e2e 03bf d14b 7f3e f402 cb3e 7fd9 0a3b
000000c0: 5f2d d0be c724 bebe 8f39 cdbe 0580 1cbe
000000d0: 468e b63e 690b de3e 8fae ba3e 0eed 3ebe
000000e0: dde2 09bf 219d 673b 72ce 2a3f 12b3 1c3e
000000f0: 51f9 b4be d978 01bf ac26 e33c f6b3 153f
00000100: d706 86be bf60 a0be 4b5a aebe 0b01 3f3e
00000110: 3e62 d63e 3b05 81be db11 b6be 6cc8 cabc
00000120: 9ae6 db3e 18c3 a83e 3a9e 02be 3bec 52be
00000130: e227 0cbe 7317 37bc 5cd1 513e c2c1 ed3e
00000140: 8d0b eabd 6fd9 18bf 1d59 92be ff65 0b3d
00000150: dbe0 da3c b6ac c2bd 6d98 0cbf f573 94be
00000160: 360c 98bd 472c 0dbe 032f 57be 9ec5 67be
00000170: 1184 73be 97e5 05bd 30cd 1cbe 3a39 86be
00000180: 1b67 67be 54f4 86be 4e47 36be 2465 fdbd
00000190: 3afd 143c bd9e 0e3c f507 933e c9c2 be3e
000001a0: fe1f 803e a8d2 203c 97c2 f6bc 9e0d a43c
000001b0: 48ec b73e 230d 8a3e 79f4 cabc 300b 52be
000001c0: 5cd8 1f3d 1e14 783e 5744 f83d 00bd 32be
000001d0: d29f 00be 1bc2 0d3e dafb b13e 0a34 923d
000001e0: 7e81 bfbe 774d 37be b58b 4abd 91c1 603d
000001f0: 2914 6a3c c6b2 fbbd c2bf 85bd 9a0c b53e
00000200: bb8f 023f 8900 5b3e c578 2fbf 0451 a6be
00000210: 21d3 533e 000d b83e 9831 5b3e 5c94 6bbe
00000220: 25bf c9be de7e 5dbe e49c 553e 4b1e 6e3e
00000230: 3510 883e 5a60 0cbe 2c47 b1be 41f2 f7bc
00000240: 06ba a63e 9789 183e 77c8 94be d2c1 cebe
00000250: 2c46 01bd b7ff f93e af36 ec3c b7c0 803d
00000260: 1222 c23d bd2f 6b3d b378 7ebc 7963 d93e
00000270: 8960 2b3e b35d dc3e 2ace 9b3e 7ca1 813e
00000280: c324 353e 2237 163e 7f33 12be 2ed6 9cbe
00000290: b892 8ebe b272 6ebe 4d56 83be f20e c1be
000002a0: a819 dfbe 56ff 80be 17b5 a2be ea95 00bf
000002b0: c596 83be f3a5 9f3c 6504 a43d 10d3 63be
000002c0: 7345 a1be 5620 50be 226c 823d b8eb 11bd
000002d0: 4843 3cbe 65be ebbd 8d3e 3dbe 28f0 523c
000002e0: 9e56 44be f390 f5be 9f69 15bf d5bd 02bf
000002f0: 70ba 0fbf dcbe 19bf f850 17bd bf32 44be
00000300: c566 0f3e bc3b 713d dc6a 46be 72cb eb3d
00000310: 0ef6 373e 2761 923d 8a13 9ebe 0799 97be
00000320: 02a3 9bbd ab5f 09be 733d 0cbe 4dec 4d3e
00000330: a604 d0bd f6a1 4d3e 3b61 2d3d 798f ca3e
00000340: 7e1f ea3e c8b9 9b3e 7b21 e93e 78ec a63e
00000350: 28da 7f3e 4bef f43e 3687 673f 99df 193e
00000360: 67f7 1fbe e8ab 97be 9e50 15be 1ace bf3e
00000370: 0119 1ebe 2927 c03d cabe 923e 2a49 993d
00000380: f539 8e3c 939e 06bd 505b b33c fd39 7fbe
00000390: ec11 c2be 6026 78be 5176 7bbe f5dc 093e
000003a0: 0beb 783e 9c3f 443d a339 c83d 1973 af3d
000003b0: e90e 7e3e 926b 463e e67b 1d3e 6d51 ba3e
000003c0: 57ee 21be 6981 393e 6fdb 83bd b691 d63d
000003d0: 6b99 c23e 543a ca3e 01f8 bb3e 2dbe 003e
000003e0: d92c 003c f225 49be e1b5 73be 4856 cabe
000003f0: 3653 e1be 8ea4 26be 3cad 62bd 781c a2bd
0.16258113 0.15658227 0.14517063 -0.19650182 -0.07592648 0.2031986 0.22623207 0.17686215
0.06881577 -0.27322266 -0.03230655 0.071173854 0.35308343 0.033604212 -0.34748986 -0.064817205
-0.12406899 0.36846915 0.089904696 -0.30891356 -0.033376254 0.102496475 0.4650608 0.14037047
-0.22046112 0.19952016 0.23320493 0.20463791 0.08721852 -0.064411245 -0.14082634 0.1349022
0.11256955 -0.038010865 -0.3308844 -0.21289748 0.2343847 0.22106653 -0.29000506 -0.5881638
0.04639087 0.15600738 0.080511734 -0.20449398 -0.5124291 0.24931265 0.3965069 0.0021186767
-0.40659615 -0.37137434 -0.40082976 -0.1528321 0.3565542 0.4336808 0.36461303 -0.18645117
-0.5386179 0.003534146 0.6672126 0.15302685 -0.35346463 -0.50575024 0.027728401 0.58477724
-0.26177093 -0.3132381 -0.34053263 0.18652742 0.41871828 -0.25199303 -0.35560498 -0.024753772
0.42949373 0.32961345 -0.12755671 -0.20597927 -0.13687089 -0.011175024 0.2049002 0.46436888
-0.114279844 -0.5970678 -0.28583613 0.034032818 0.026718548 -0.09505598 -0.54920083 -0.28994718
-0.07424204 -0.13786422 -0.21014027 -0.22633979 -0.23780848 -0.032689657 -0.15312648 -0.26215535
-0.22597925 -0.26358283 -0.17800638 -0.12372807 0.009093577 0.008704838 0.28717008 0.37257984
0.25024408 0.009815849 -0.030122085 0.020026024 0.35922456 0.26963148 -0.024774777 -0.2051208
0.039024696 0.24226424 0.1212241 -0.1745491 -0.12560967 0.13843577 0.3476246 0.07138832
-0.37403482 -0.17900644 -0.04944964 0.0548721 0.014287033 -0.12289958 -0.065307155 0.35361177
0.51000565 0.21386923 -0.68543655 -0.32483685 0.20686008 0.35947418 0.21405637 -0.23005813
-0.39403644 -0.21630427 0.2086063 0.23253743 0.26574865 -0.1370863 -0.34624612 -0.030266883
0.325638 0.14896236 -0.29059193 -0.40382248 -0.03156106 0.48827907 0.028834669 0.062867574
0.09479155 0.057418574 -0.015531707 0.42458704 0.16736044 0.43040237 0.30430728 0.25318515
0.17689805 0.14669469 -0.14277457 -0.30632156 -0.27846313 -0.2328594 -0.2565178 -0.37706715
-0.43574262 -0.25194806 -0.31778786 -0.5022875 -0.25700966 0.01948831 0.08008651 -0.22248483
-0.31498298 -0.20324835 0.06368281 -0.03562519 -0.18385041 -0.11510924 -0.18480892 0.0128746405
-0.19173667 -0.4796215 -0.5836429 -0.5107091 -0.56143856 -0.60056853 -0.036942452 -0.19159983
0.14004047 0.058894858 -0.19376701 0.115134135 0.17964956 0.071474366 -0.30874282 -0.29608938
-0.07599451 -0.134154 -0.13695316 0.20109673 -0.101571366 0.20081314 0.042329054 0.39562586
0.45727152 0.30415177 0.45533356 0.32602286 0.24985564 0.47838816 0.9044069 0.15026702
-0.1562172 -0.29623342 -0.14581534 0.3746193 -0.15439226 0.09382469 0.28661186 0.07484658
0.01736162 -0.032866072 0.021894127 -0.24924465 -0.37904298 -0.24233389 -0.24556853 0.13463195
0.24308412 0.047912225 0.09776618 0.08566875 0.24810375 0.19376972 0.15379295 0.36390248
-0.15813576 0.18115772 -0.06438338 0.10477011 0.38007674 0.39497626 0.3671265 0.12572546
0.0078231925 -0.19643381 -0.2379985 -0.39518952 -0.44008797 -0.1627371 -0.05534099 -0.07915586

bias f4 [16]
00000000: b479 183d b104 0b3e 4cbb 9c3e 6c3b 7abe
00000010: 71c1 e2bd 41ce 523e 7060 24bd e619 563e
00000020: 1679 86bd 6299 4fbd 2326 dc3e 608d 193e
00000030: 8a07 233d f168 e8bc 0df7 c03e a5fe 083e
0.03722544 0.13576008 0.30611646 -0.2443673 -0.11072052 0.20586492 -0.040131032 0.20908317
-0.06566064 -0.050683387 0.42997846 0.14995337 0.03980211 -0.028370352 0.37688485 0.13378389

weight f4 [120, 16, 5, 5]
00000000: fb26 713e 7148 643e 1e4d 23bd 6d15 83be
00000010: 472c 3e3e a36f 8cbe 14aa 7dbe 8e60 66bd
00000020: 489e 8c3d 39a8 bf3e 8156 b4bd 0516 95be
00000030: 9a09 a2be 41d0 1c3e f9ba 513e bf3a 5fbe
00000040: 5344 c63d 8067 35be da3f 823c 25ed a63d
00000050: 5600 0abe 35f2 703e 0968 e3bd 6394 543e
00000060: f5fc 93bd a7d2 003e c451 753e 0a0a 70bd
00000070: f289 88be fa96 7dbe ba58 7c3e 8ff3 e53d
00000080: 6cb9 e4bd c6f0 8dbe 1a0c 813c 4744 8bbd
00000090: a09d 96be 7360 0ebe 3af1 913c e238 a03d
000000a0: 83a5 4f3c 8e48 5a3e dd61 a83e 0db5 963e
000000b0: 346f 3d3e ff89 093e 01fa 2f3e c372 623e
000000c0: 618e 963e 98f1 053e c513 c33c e5d4 a0bd
000000d0: e3b7 6ebe 4272 6b3e 52fe ce3d d35a 8ebd
000000e0: 292c 463e db77 813d e1d0 1c3e 183d 6ebe
000000f0: 2aae 833c f3a7 353d a4b0 4b3e a02b 08bd
00000100: de85 81bd 20d9 9fbd d16a bf3c 60f1 d5bd
00000110: b511 c8be 0922 32be c043 90be ec32 d3bd
00000120: 236d 80be ebde 213e 9310 633e 5208 48be
00000130: 59d8 a6bd c506 77be 455a 88be 33db 233e
00000140: 42a4 b23d 8fae 8cbe be08 13be 48cc 54be
00000150: 1591 f9be f016 7bbd 4448 573b b54c 8bbc
00000160: a090 b7be cf3a 8abe 0849 dd3e 0c86 90be
00000170: 5b4a 47bd f3a7 5a3e cafb 08be 8bc9 123e
00000180: bd39 24bd 42fe b1bc 3947 1b3d 6d19 4e3e
00000190: 47c6 d6be 60f9 a1bd 27f3 6c3d adf3 3f3e
000001a0: 856a 51be 9866 21be 83ef 823d 68e6 57be
000001b0: 5729 2dbe 132e 4d3d 100b 943d e1c4 eebd
000001c0: 4b2a 2ebe 2991 d9bd f421 59bd 10d7 a63c
000001d0: 7c39 ecbd f949 a7be 818b b63c 653c 713e
000001e0: 2272 1f3e 4073 31be 7f5b 1b3e 2c2f fb3d
000001f0: e952 ce3e d6b1 e73d 32da b83e 8f02 39bd
00000200: e46a f2be 0da2 bcbd addb 303c 539d 0ebe
00000210: f4cc 83bd e4bd 053c 69b7 b6bd 18c7 1abe
00000220: 4b05 93be 22f9 dcbd de01 8a3e 2dc5 bb3d
00000230: e697 873e 93a0 813e 1f48 063e 599d 043f
00000240: 1b8c 243e 39fb 643e f5f8 03bd 0dad b93d
00000250: 012f 153e fe50 443e 921f 80bd b4ed 0bbd
00000260: 90b4 64be 6398 613e fefc d03d 020a aebe
00000270: 1936 73be 6192 03bf a554 c2be fc3d 0dbe
00000280: fc1c a4be 0dbd 02bb c1b5 5cbc d0e9 d5bd
00000290: 18ca 20be 3c08 d13d b552 b7bd f7c4 6ebd
000002a0: ebb4 8cbe 117d babe 9c5a 75be 2b11 84be
000002b0: 7738 43bd f74b 953e 49aa ec3e 33c0 083f
000002c0: 8510 213f 60b0 c13d 63fa 7bbd d95f b03e
000002d0: a85b 093e 6251 43be 8a27 c43e 4195 d03e
000002e0: f27d a4bb abae 193e bec5 d33e 8cf8 8b3e
000002f0: d4f7 a2bd 3f0a 4e3e cd75 173e 8cba db3e
00000300: c33a b83d 86bc c03d 6079 93be b47f 893d
00000310: 198d 8dbe 3709 a4be 3a38 1ebf 7753 ccbe
00000320: 69d7 bbbd 6502 b43d 5a7a 4a3e 34cc 953b
00000330: e9f6 993e 4ef8 253d 35b9 8bbd 23a9 263e
00000340: 96fe 013e 379a 0bbc 8258 18be 2002 99bd
00000350: 0ede ca3e 8d9c ad3d 41cb 46bd 517f 893e
00000360: 2c26 4c3e 381b af3d cccd 82bc 8a4d 35be
00000370: 0c65 b83e 35ff 5f3d 13fa 5e3d 7262 8e3c
00000380: d1d1 34be 6d24 483e 842f f23d 8e9a 6abe
00000390: 0598 d2bc eb0d bc3e afdc 0b3d 11f8 e53c
000003a0: a5a8 813e c609 b63e 0d50 8a3e da2e 4d3c
000003b0: dde0 de3d 0c1e 153e cabb c53e 7e46 e53e
000003c0: 924a 4d3e 6a2b ca3e 4ca9 0a3e 859b e93c
000003d0: 8f25 20bc fb18 94be 0e95 183d 9673 043d
000003e0: 64df f4bc bd19 b6bd b0ce 843d 26c3 3dbe
000003f0: ff5c 8d3e a64a 983e 56c1 b0bc 07b8 a83c
0.23550026 0.22293259 -0.039868467 -0.25602284 0.18571578 -0.27428922 -0.24771911 -0.056244425
0.06866127 0.3743303 -0.08805562 -0.29118362 -0.3164795 0.15313818 0.2048148 -0.21799754
0.096810006 -0.17715263 0.015899587 0.081507005 -0.1347669 0.23529895 -0.111038275 0.2075973
-0.07225982 0.12580357 0.23956972 -0.058603324 -0.26667744 -0.24764624 0.24643221 0.11228096
-0.11168179 -0.27722758 0.01575284 -0.06800132 -0.29417133 -0.1390398 0.017815221 0.078233495
0.012673738 0.2131674 0.32887164 0.29435006 0.18499452 0.13431548 0.17185213 0.2211409
0.294055 0.13080442 0.023813138 -0.078531064 -0.23312335 0.22992805 0.101071015 -0.06950917
0.19352783 0.06321689 0.15314056 -0.23265493 0.016074259 0.044349622 0.19891602 -0.03324473
-0.06324361 -0.07805085 0.023366364 -0.10446429 -0.3907601 -0.17395796 -0.2817669 -0.10312447
-0.25083265 0.15807693 0.22174291 -0.19534424 -0.08146734 -0.24123676 -0.2663137 0.16001587
0.08722736 -0.27476928 -0.14358804 -0.20781052 -0.487435 -0.06130117 0.003284947 -0.01700435
-0.35852528 -0.26997992 0.4321978 -0.2822727 -0.048654895 0.2135313 -0.133773 0.14334695
-0.040094126 -0.021727685 0.03790972 0.20126887 -0.4194815 -0.07908893 0.057849076 0.18745299
-0.2045079 -0.15761793 0.063933395 -0.21083987 -0.16910301 0.050092768 0.072286725 -0.116586454
-0.17008321 -0.1062339 -0.053010896 0.020366222 -0.11534402 -0.32673624 0.022283318 0.23558195
0.15570882 -0.1732912 0.15171622 0.12264857 0.4029763 0.113132164 0.3610397 -0.045168456
-0.47347176 -0.09210596 0.010794562 -0.13927202 -0.06435576 0.008162949 -0.089217015 -0.1511501
-0.28714976 -0.10789706 0.2695455 0.09168468 0.26483077 0.2531782 0.1311345 0.51802593
0.16069071 0.22361459 -0.032219846 0.0906621 0.14568712 0.19171521 -0.062560216 -0.03416224
-0.22334504 0.22030787 0.102045044 -0.3399201 -0.23751105 -0.5139523 -0.37955204 -0.13793176
-0.32053363 -0.0019949109 -0.013471068 -0.10444987 -0.15702093 0.10206649 -0.08951322 -0.05829331
-0.2748178 -0.36423543 -0.23960346 -0.25794348 -0.04766127 0.2915952 0.46223667 0.5341827
0.6291583 0.09457469 -0.061518084 0.34448126 0.1341387 -0.19074014 0.38311416 0.40738872
-0.0050198967 0.15008037 0.41361803 0.27338064 -0.07957426 0.20121096 0.14791031 0.4291576
0.08995583 0.09410958 -0.2880354 0.067138106 -0.2764671 -0.3203828 -0.61804545 -0.3990743
-0.091719456 0.08789519 0.19773236 0.004571462 0.3007119 0.040520005 -0.06822435 0.16275458
0.12694773 -0.008520654 -0.14877513 -0.074711084 0.3962254 0.08477125 -0.04853368 0.26854947
0.19936436 0.085501134 -0.015967272 -0.1770536 0.36014593 0.054686744 0.054437708 0.017380927
-0.17658164 0.19545145 0.11825469 -0.2291052 -0.025707254 0.3672937 0.034146007 0.028072389
0.25323978 0.35554332 0.270142 0.012523377 0.10882733 0.14562243 0.38619834 0.44780344
0.20047978 0.39486247 0.13541144 0.02851654 -0.00977458 -0.2892531 0.037251525 0.032336794
-0.029891677 -0.08891628 0.06484735 -0.18531474 0.27610013 0.29744452 -0.021576565 0.020595564

bias f4 [120]
00000000: e18f 283d b175 2e3d a4fb 3b3c f999 9f3b
00000010: 1efc 203e 8628 073d c3a1 94bd b867 483d
00000020: e64c 143e 47bd 323e f601 75bd d726 26be
00000030: 5ae1 45bd 876a 2f3e 5b1e 9bbd d250 c23d
00000040: c949 9e3d 2886 60bd e335 16be 35e0 06be
00000050: d101 153d 7b75 503d e0b6 7c3d d394 09be
00000060: 02fd 613e 61db 91bc 4bf4 5cbd 7b4d 35bd
00000070: 76bf 6f3d 8569 133d ac52 3e3e 03aa 3abc
00000080: e8e2 6abe ad15 a8bd 9396 0fbe 43f7 38be
00000090: 3de7 6abe a55f 423e 8be7 aabe 2baf c53d
000000a0: 5f4f 113e 53df 8d3d 558b bf3d 252e a1bc
000000b0: bc7e 153e 79f0 babb be30 d5bd c6b3 f93d
000000c0: b105 a2bd aa3a 4b3e 5bd5 8f3d 54dc 843d
000000d0: 60de bfbd 8194 113e 327c 263e e56f 96bd
000000e0: 83af eebd fbc3 bc3d 0053 c03d 3146 843d
000000f0: 33cb d13d a99d c13d b526 81be 12fb 26be
00000100: 27b4 49bc a561 323e 3817 ab3d 8ded 583b
00000110: d780 263e 5ab6 0cbe 0309 cf3d 31ab 37be
00000120: 5538 51bd 2311 1b3d 47c7 68be ef14 143c
00000130: 1228 6b3d 9090 17bd 609d 553d ca4f 37be
00000140: acda 5bba 131a 26bc b2d4 c13d 7df0 f23c
00000150: cb88 813c 30a4 bf3d 63cd 34be 5c00 863c
00000160: f226 a73d 9e0c 763e 3e7b bfbd 2b61 cb3d
00000170: e644 223d 2dee a8bd 64f2 353e 0b8e 05bd
00000180: eaf2 843d ccf3 24be 537b 85bd 4728 013e
00000190: 30b5 4a3e d701 b0bd 35bc dd3b 4ea2 c33c
000001a0: 9038 133e 12b8 be3d 9d2e 0e3e 4a31 5dbe
000001b0: 84e0 d2bb 1ec5 bfbd 6fea 0cbd c0bc 583d
000001c0: aeea a8bd ed22 dcbd c8e5 e93d 280f f03c
000001d0: 7c29 693e 71cf 3f3e 0687 263d 45f7 09be
0.04115284 0.042592708 0.01147357 0.00487065 0.15721175 0.03299763 -0.07257416 0.04892704
0.1448246 0.17455016 -0.059816323 -0.16225754 -0.048310615 0.1713048 -0.07574149 0.094880715
0.07728917 -0.05481544 -0.14668994 -0.13171466 0.036378685 0.050893288 0.06169784 -0.13435678
0.22069171 -0.017804803 -0.053943913 -0.044263344 0.0585322 0.035989303 0.18586224 -0.011393073
-0.2293812 -0.08207259 -0.14022283 -0.18063073 -0.22939773 0.18981798 -0.33379778 0.09652551
0.14190434 0.06927361 0.09352747 -0.019675324 0.14599127 -0.005704936 -0.104096875 0.12192492
-0.07911242 0.19846597 0.07023116 0.06487337 -0.093685865 0.14216806 0.16258314 -0.07345561
-0.1165457 0.09217068 0.09390831 0.064587004 0.10243835 0.094538994 -0.25224844 -0.16306713
-0.012311018 0.17420061 0.08354038 0.0033100576 0.16260086 -0.13741437 0.10109141 -0.17936398
-0.051079113 0.03785814 -0.22732268 0.009038194 0.05741126 -0.0370031 0.052152038 -0.17901531
-0.00083867717 -0.0101380525 0.094643965 0.02965569 0.015812298 0.09357488 -0.17656474 0.016357593
0.08161725 0.2402825 -0.093496785 0.09930643 0.039616488 -0.082485534 0.17768246 -0.032606166
0.06491645 -0.16108626 -0.06517663 0.12613021 0.1979568 -0.08594101 0.006766821 0.023881104
0.14377046 0.093124524 0.13884969 -0.21600834 -0.0064354558 -0.09363769 -0.03440326 0.05291438
-0.082478866 -0.10748849 0.114207804 0.029304102 0.22769731 0.18731476 0.040656112 -0.13473232

weight f4 [84, 120]
00000000: 2b6e 8bbd 3b0a a6be f15f 803e 9134 e73d
00000010: 37d0 1ebd a96f cabe 7fcd e83e 3333 063e
00000020: 56cd 87bd f5d4 88be 5164 09be f7d0 b43d
00000030: 7f76 41be 72f3 75be c17b b93e 9a2e 09be
00000040: 3441 8fbe 2bad 08bf 05c6 9f3e a987 813e
00000050: d3c9 b23e 0a11 a4be d31c 833e a382 24bf
00000060: dda1 3dbd a970 703d 4b7f 04be 9aba 33bd
00000070: 71bc a9bd d938 143d 5978 37be 271e b4be
00000080: f1d8 e13b b35b ebbc c5fe 443e 4d5f 6d3e
00000090: e186 e83d 48c6 22be 039c 8abd 6a8b b33e
000000a0: ddca 59be 050e 9ebe a922 dd3d a8e1 55ba
000000b0: ce90 fa3d 9ca6 70be e0ba 5e3e cbb9 6ebd
000000c0: ca38 a3be cdb8 7abd 7f2c 64be a29a 25be
000000d0: eebf d6be f183 37bc 488f 9ebd fa1a dc3c
000000e0: 4945 6abd 560e 10be 3554 1bbe c256 523e
000000f0: 9d8f b63d 50e0 9cbe 5328 163e 3289 533e
00000100: c732 82be e16f 1fbe 89f7 0e3e 73c8 66bd
00000110: ebc9 f43e 2345 95be 0605 bfbe 36d2 4b3e
00000120: c06d 4bbe abb1 edbd 9599 4c3e 7634 493e
00000130: 40b9 893e f316 f1bd 7a04 48bd d95a cf3d
00000140: 27e2 c4bc 8de8 2e3d 1d16 363d 692a a23e
00000150: 680f a9be 6332 e9be db22 d53e 567c 9cbd
00000160: 3672 223e df0e ca3d 3bc4 8c3e 9837 2a3c
00000170: 0cb9 243e f989 0f3c d96e 0cbe 31ba 373e
00000180: 615f bb3c 875b e83d a437 6cbe 64bc c0bd
00000190: 519b a6be df97 53bd 6d56 a3be 084a c83e
000001a0: 9a1c 28be 89e4 243e 652f 023f 8142 a1be
000001b0: 33cc 9b3e 29c3 b63d cf22 29be ec3a 9a3e
000001c0: 6c0f b83d 1115 00bf a4c5 39be 03f5 be3d
000001d0: 67e1 94be e92f f0bb a308 343d 3d82 0a3f
000001e0: 1ccb 7ebd 230b 93be 9014 5fbd e458 fa3d
000001f0: 42f1 a6bd 7202 18bf 57b1 ac3e afe9 1e3e
00000200: c67b 1f3e 4e0c a2be 37de e3be 9de6 a03d
00000210: a467 24be acb2 71be 015b bb3c 3f4a 3bbe
00000220: 512e 71be d89d f9be f952 a53e a9f8 c1bd
00000230: aa7a 87be 4ae7 373e 3f4c 63be 1c0e d5be
00000240: 51e0 22be bc5b 3f3e b023 e23d a931 513d
00000250: be5b 883c 857f c4be 4c5c debd 932b b6be
00000260: 09f2 52be b354 08bd 0dfe c03d 0da9 5c3e
00000270: bcdd 353d 5f8b 953e f8ac 4d3d f455 423e
00000280: d9be bbbe a221 843e 3c2a e03d 8c60 3dbe
00000290: d04b 453d 47bb 98bd a446 de3e 2233 443e
000002a0: 92bd bfbd 6a15 bf3d aa21 2e3e cf7e 18be
000002b0: 47fb 8bbe 5e30 78be 2f3d b9be 5cf9 6e3e
000002c0: af76 62bd 445b d63d 68c1 8e3d 68d2 eebd
000002d0: 8d14 ed3c 8d79 aabd ad13 b83e 4f9e fa3d
000002e0: 5ff4 173e 4205 123e 6c17 5abe 9597 abbe
000002f0: 530a 7c3e c70a 3f3e 3e67 f3be a2f5 893d
00000300: 2dcc 0fbc df68 d6be 7f71 b33e 153d f4bc
00000310: 6ea6 ba3d 50c3 65be df04 ab3e c4c3 5b3d
00000320: e84e c9bd d859 183e 5ef6 eabe e23e 3e3e
00000330: 8306 bcbe 93b6 473e 27e2 8a3e 1c9a 473d
00000340: 2072 d43d af8f bf3e a64f 3d3e 2565 163d
00000350: acf4 613e 4fb8 ab3c 138b ef3d 5a6c 223e
00000360: a3d3 0f3e e1fc 073b 4af4 a7be 1169 7a3d
00000370: 3771 80be 8391 99bd 361e e5bd b097 c43e
00000380: 1950 6f3e 8d9a bebd 3111 f63e bc1e 05bf
00000390: 5061 463e efb3 be3c cea0 81bd 6cf0 a93e
000003a0: 07f0 f13e e45d fd3c 9ed1 263d dbe4 993e
000003b0: c345 b8bd 5492 6ebc 2a9c 9bbe 470b fa3e
000003c0: a41c 8bbe 4715 303e 5c74 cbbe 86fe 533e
000003d0: b2e6 aebe fb74 84be 7954 10bf b170 12be
000003e0: 75a7 3d3e 7c2c 453e e218 40bd 0c6f 403e
000003f0: 90a8 843e e44e 0f3d 3c88 b23e 065b d0be
-0.06808122 -0.3242968 0.25073197 0.11289323 -0.038772788 -0.39538315 0.4546928 0.13105468
-0.066309616 -0.26724973 -0.13417174 0.088289194 -0.18892859 -0.24018648 0.3622723 -0.13396683
-0.27979434 -0.53389233 0.31205764 0.25298813 0.34919605 -0.3204425 0.2560793 -0.64261836
-0.046296943 0.05870119 -0.12939183 -0.04387913 -0.082878955 0.036187027 -0.17917003 -0.35179254
0.0068923165 -0.028730249 0.19237812 0.23180886 0.11353851 -0.15895951 -0.06768038 0.35067302
-0.21268792 -0.3087007 0.107976265 -0.00081589306 0.122346506 -0.23501056 0.21750975 -0.058282655
-0.31879264 -0.061211396 -0.22282599 -0.16172269 -0.41943306 -0.011200891 -0.077421725 0.026868332
-0.05719498 -0.14067969 -0.15168841 0.20540908 0.08914111 -0.30639887 0.1466382 0.20657805
-0.25429365 -0.15570022 0.13961615 -0.056343507 0.478103 -0.2915431 -0.3730852 0.19904408
-0.19866085 -0.11606153 0.19980462 0.19648919 0.26899147 -0.11771955 -0.048832394 0.1012475
-0.02403362 0.042702246 0.044454683 0.3167298 -0.33019567 -0.45546255 0.41628155 -0.07640903
0.1586388 0.09866118 0.27493462 0.010389231 0.16086215 0.008760923 -0.1371416 0.1794212
0.022872629 0.113455825 -0.230681 -0.09410933 -0.32540372 -0.051658507 -0.31901875 0.3911898
-0.1641716 0.16102804 0.5085357 -0.3149605 0.3042923 0.089239426 -0.16517185 0.3012308
0.089873165 -0.50032145 -0.181418 0.09324076 -0.29078218 -0.00732993 0.04395355 0.5410498
-0.06220542 -0.28719434 -0.05446297 0.12223986 -0.08151485 -0.5937873 0.3372905 0.1551883
0.1557456 -0.31650013 -0.44505474 0.07856486 -0.16055161 -0.23603314 0.022870542 -0.18290041
-0.23552825 -0.48753238 0.32289866 -0.09471256 -0.26460773 0.17959324 -0.22197054 -0.41612327
-0.15905882 0.18687338 0.11041963 0.05107275 0.016645309 -0.3837854 -0.10857448 -0.3558012
-0.20600142 -0.0332839 0.09423456 0.21548863 0.044400916 0.29207894 0.050213784 0.18978101
-0.36669043 0.2580691 0.109455556 -0.18493861 0.048168004 -0.07457595 0.4341327 0.1916013
-0.093623295 0.09330256 0.1700503 -0.14892124 -0.27340147 -0.242372 -0.36179492 0.2333731
-0.055288967 0.10466626 0.06970483 -0.116612256 0.028940463 -0.08323965 0.3595251 0.12237226
0.14839314 0.14259818 -0.21297997 -0.33514085 0.24613313 0.18656455 -0.47539705 0.06736304
-0.008776707 -0.41876885 0.35047528 -0.029814282 0.09113775 -0.22437787 0.33402154 0.053653494
-0.09829503 0.14878023 -0.45891088 0.18578675 -0.36723718 0.1950324 0.27125666 0.048730955
0.1037333 0.3741431 0.18487415 0.036717553 0.22065991 0.020961909 0.11696448 0.15861645
0.14045577 0.0020750093 -0.32803565 0.061135355 -0.25086376 -0.07498457 -0.11187403 0.38396978
0.23370399 -0.09306822 0.4805999 -0.5200002 0.1937306 0.023279158 -0.06329499 0.3319124
0.4725344 0.03092856 0.04072725 0.30057415 -0.08997681 -0.0145612545 -0.3039258 0.4883673
-0.2717029 0.17195617 -0.39737213 0.20702562 -0.34160382 -0.258705 -0.56378895 -0.14300801
0.18520911 0.1925525 -0.04689873 0.18792361 0.25909853 0.034987345 0.34869564 -0.40694445

bias f4 [84]
00000000: 1180 56be d10d 31bd 0c6d 373e 77b3 0f3e
00000010: bc1e 0e3e 986a 8f3c 6a2e 963d 989c 9f3d
00000020: 3ed5 b03a ce51 f63b 0ed7 5fbe 37fe 1bbe
00000030: f0d3 373e 3607 683d 8b22 65bd 7cc3 c9bc
00000040: 69d2 8c3d ff66 96bd 683a 713d 6679 543e
00000050: bd32 363e b08f 153d a427 663c b335 553e
00000060: 3f90 8e3e 822d 0cbe 4935 a83d 7a78 01be
00000070: a965 ec3c 702f c9ba 237e aabe 64e7 473d
00000080: 7601 b83e 3ab5 fabd be6d 0a3e 3f27 62bd
00000090: 4b5b 1c3e 8213 2c3e 4e7d 063d 6621 8e3d
000000a0: e477 643d d4f9 a13d 1b3c 36be 7815 9bbd
000000b0: 0238 af3d 74b7 43bd 0174 193e f503 35be
000000c0: 81ea 98bd 2a29 b33d b8fd 9dbd a5b4 ebbd
000000d0: 820c 3bbe 925c 60be d82e a23c 8b11 b73d
000000e0: 6f17 8fbd 2e0a 3dbe 16a3 cdbd ab1e 6e3c
000000f0: 916d 89bc 64e4 413e c809 393e f34b d23d
00000100: 1d8e a0bd 1222 703e f480 be3d 5dc1 583e
00000110: 460b a7bd c87c d7bd 14d8 59bd fd1e 043d
00000120: 3715 9abc d46e 7fbd 3c10 3e3d 3e65 0dbd
00000130: 8d6a 8dbd c76a c3be 6dc6 87be 33b1 07be
00000140: a787 9d3c ff7b fe3c d658 073e 50e3 133d
-0.20947291 -0.043226067 0.17912692 0.14033304 0.13878912 0.017506883 0.073330715 0.0779354
0.0013491285 0.007517076 -0.2185938 -0.15233694 0.17951941 0.056647502 -0.055941146 -0.024629347
0.0687607 -0.07343864 0.05889359 0.20749435 0.17792793 0.036513984 0.014047537 0.20821266
0.27844426 -0.13689235 0.08213288 -0.12643614 0.02885707 -0.001534922 -0.3329936 0.048804656
0.35938615 -0.122415975 0.13518426 -0.05521321 0.152692 0.16804317 0.032834344 0.06939964
0.0557784 0.07908979 -0.17796366 -0.07572454 0.085556045 -0.047782376 0.14985658 -0.1767729
-0.07466603 0.08748086 -0.07714409 -0.115090646 -0.1826649 -0.21910313 0.019797727 0.08938893
-0.069868915 -0.18460914 -0.10040872 0.014533679 -0.016775878 0.1893478 0.18070138 0.102683924
-0.07839606 0.23450497 0.093019396 0.21167512 -0.08156447 -0.10521847 -0.053184584 0.032256115
-0.018808944 -0.062361553 0.0464022 -0.03452038 -0.069050886 -0.38167402 -0.26518574 -0.1325119
0.019229723 0.031064985 0.13217482 0.036105454

weight f4 [10, 84]
00000000: 431e 07bf d209 263e e903 853e 29f3 eebe
00000010: 4572 523e 0564 cbbe 4e28 033f b49a b5be
00000020: 7e1c f63e 9802 a2bc f612 69be 10e4 f03e
00000030: a9bf eebe fb37 c4be 61bc 16bf ce58 5bbe
00000040: 7233 643f 9e6c acbd cc17 a7bd 0f20 463e
00000050: 85f1 babe ae3e 91be f9c3 383f e8e9 8fbf
00000060: 32cb 753c e430 8cbe a903 4a3d aaab 203f
00000070: 25d7 d93e e480 20bf da42 f03e 7d5a 74be
00000080: c326 143f 2dfb 523c d029 833e a127 963e
00000090: 5b23 673e a068 b43e f27d 6e3e 95b7 a73d
000000a0: 1365 20bf 682d 183f 2bfc 42bf 4497 d23e
000000b0: efd8 0ebf 5bbb 6b3e 0f87 013f 1408 e8bd
000000c0: cd8b 513f bf64 f6bc 7009 97be d12b 21bf
000000d0: 5a7c d6be f67c 34be 4b63 013f f9cc d23e
000000e0: 7324 65be b4c9 be3e 9569 bebe 93d5 d53e
000000f0: 9997 b33e 3a42 4fbf d1da fdbe 399d 06bd
00000100: ceb5 583e 0740 853e c0a1 a6bc ae86 023f
00000110: b46f 0dbe 35d3 e1be 4b68 993d 1495 873e
00000120: d7b3 e33e ac23 e63e d32b c4be cb68 23bf
00000130: 82cf 133f c18c 6c3e 812f 383d 19ae 72bd
00000140: 05de 15bf c37d d33d d925 5dbf 2cfc 4abf
00000150: 5005 2cbe 2143 6ebe bd2b 0a3f 79c9 a73e
00000160: 5620 9f3e 8fa5 623e 0e32 a53d eaf0 c6bd
00000170: f409 fdbe 3d88 eabe fff8 d7be 95a3 043e
00000180: f7a3 123f 5ed0 a83e 31c9 4dbc eb37 e9be
00000190: 392e d03e 95a7 053f 1648 2e3e da12 443d
000001a0: 8511 15be e9b2 293e cb01 b8be 5a9e 51be
000001b0: 736a 723e 57fb e03d 273f c13e f03a b53e
000001c0: dc7f 643f c280 d13e e487 bb39 f3f5 62be
000001d0: d273 17bd b871 8a3e 7947 b5be f9f3 b6be
000001e0: 9b09 bcbe 4045 9dbe 1f51 d6be 931a dcbd
000001f0: be36 7dbd 9066 af3d 9896 fe3d 0ae9 fd3d
00000200: ed9c 653e e463 fcbe 1938 a33e 1eaa 043f
00000210: ddc8 f13e c9ed d43e 2957 95bd e723 3cbe
00000220: e276 393e 0bdc 02bf fde7 13bf 5696 8cbd
00000230: 1d6f 363f 577a 88be 68ed 923e f2bb 843e
00000240: 7495 d6be 1331 d13e fda6 9a3e 71fb 16bf
00000250: fc65 c5be b22e ffbe da62 2cbf 5123 1f3c
00000260: 9f35 5f3e 01b4 75bd b277 0dbf 1e04 1d3f
00000270: 9298 9bbe 1f62 193f 8f35 d13e 302f 093f
00000280: 6ab1 b63e bbf9 92be 9406 fd3e e5ed c33e
00000290: 4054 bc3e 7a39 873e e8e7 dcbe 2652 633e
000002a0: 3b68 2dbf f422 20bf 3c16 363f b9af 39bf
000002b0: 3e7f 8b3e 739e bc3e c306 f33e 0cb4 0c3f
000002c0: 3318 fd3e c133 2dbe 3cf5 c6be ec55 dcbe
000002d0: 02d0 cb3e a532 48be 7d33 38be 8463 fa3d
000002e0: b115 043e a880 8b3d 9e1e 6d3e dc76 d33e
000002f0: 6e5e 253f 479c 6c3e 4a9b fd3e 4d69 403f
00000300: 3282 873e c2a7 13bf 5c0c 8f3c 7882 8bbe
00000310: c1f1 5abe b3ba 8d3e 9a6f 0dbf 4a3c c9be
00000320: 5bb8 453e 6d3f 193d 04ab 453f a5ee db3e
00000330: ee5d df3e 2e94 d53e a45c e8be c518 de3e
00000340: 40b1 173f ab4a 1d3f 2fdd 2abf de99 2a3e
00000350: 6f8e a83e 144b 36bf f5e9 22be d3b6 cabe
00000360: f778 23bf 9ef6 453f b3a2 e13e 8037 e0be
00000370: d3a6 3e3e b135 01bf 5756 953e 81ec 013d
00000380: dedb acbe 7f95 eabe 55a3 b53e 637e cdbe
00000390: 520e d13e 20f4 463e 596a dcbe 17d8 84bd
000003a0: d9dc 90be cd22 ff3e d968 043f 43f4 ce3e
000003b0: 846f db3e 5ae2 743e ba45 08bf f4ef 2dbe
000003c0: d23f 1a3e c261 f3be 6ff6 483e b4ef 1cbc
000003d0: 1583 58be f55c 98be b3be 23bf 4d7b ecbe
000003e0: cb77 f1be 8147 66be cb90 a93e 527c 77be
000003f0: 7652 84be 6bfe 12bf bade 06bf 585f ed3e
-0.5278055 0.16214684 0.25979546 -0.4666989 0.20551403 -0.39724746 0.51233375 -0.35469592
0.48068613 -0.019776627 -0.2276114 0.47048998 -0.466306 -0.3832396 -0.58881193 -0.21420595
0.89141 -0.084191546 -0.08158836 0.19348167 -0.3651239 -0.28368133 0.7217403 -1.1243258
0.015002059 -0.2738105 0.049319897 0.6276194 0.42546955 -0.6269667 0.46926004 -0.23862644
0.57871646 0.012877268 0.25617838 0.2932711 0.22572081 0.35236073 0.23290232 0.08189312
-0.62654227 0.59444284 -0.7616603 0.41131032 -0.55799764 0.23020689 0.5059671 -0.11329666
0.81853944 -0.030077336 -0.29499388 -0.62957484 -0.41891748 -0.17625794 0.50542134 0.41172007
-0.22377186 0.37263262 -0.37189928 0.41764507 0.35076597 -0.8096043 -0.49581006 -0.032864783
0.21163103 0.2602541 -0.0203408 0.50986755 -0.13812143 -0.4410645 0.074905954 0.26480925
0.44473144 0.4494909 -0.38314685 -0.63831776 0.57738507 0.23100568 0.04496718 -0.059248064
-0.585419 0.103267215 -0.86385876 -0.79291034 -0.16798902 -0.23267795 0.5397299 0.327709
0.31079358 0.22133468 0.08066188 -0.097139195 -0.49421656 -0.45807067 -0.42182156 0.12953027
0.5728144 0.32971472 -0.012560175 -0.45550475 0.40660265 0.52208835 0.17019686 0.04786954
-0.14557464 0.16572155 -0.35938868 -0.20470563 0.2367342 0.10985439 0.37743494 0.35396528
0.892576 0.40918547 0.00035768666 -0.22164135 -0.03697569 0.27039886 -0.35406092 -0.3573301
-0.36726078 -0.30716896 -0.41858765 -0.10747256 -0.061819784 0.08564484 0.12431067 0.12397964
0.22423144 -0.4929496 0.31878737 0.5182208 0.4722356 0.41587666 -0.07292015 -0.1837307
0.18111756 -0.5111701 -0.5777586 -0.06864612 0.71263295 -0.26655838 0.28696752 0.2592464
-0.419109 0.40857753 0.30205527 -0.5897742 -0.3855437 -0.49840313 -0.67338336 0.00971301
0.21797799 -0.05998612 -0.55260766 0.6133441 -0.3038984 0.59915346 0.40861174 0.5358763
0.3568223 -0.28706154 0.4941908 0.38267437 0.36783028 0.2641104 -0.4314568 0.22199306
-0.6773717 -0.62553334 0.71127677 -0.72533756 0.27245516 0.36839637 0.47466096 0.5496223
0.49432525 -0.16914274 -0.38858974 -0.43034303 0.39807135 -0.1955057 -0.17988391 0.12226012
0.128989 0.068116486 0.23156211 0.4130162 0.64597213 0.2310649 0.4953254 0.75160676
0.2646652 -0.57677853 0.017461948 -0.27247977 -0.21381284 0.27681503 -0.55248415 -0.3930381
0.19308607 0.037414003 0.77214074 0.4295551 0.4362635 0.41714615 -0.4538318 0.43378273
0.5925484 0.6144206 -0.6674375 0.16660258 0.32921168 -0.7120831 -0.1590956 -0.3959261
-0.6385645 0.7732943 0.44069442 -0.43792343 0.18618326 -0.5047255 0.29167435 0.03171969
-0.33761495 -0.4581718 0.35476175 -0.40135488 0.40831238 0.19429064 -0.43049887 -0.06486528
-0.28293493 0.49831238 0.51722485 0.40420732 0.42858517 0.23914471 -0.53231394 -0.16986066
0.15063408 -0.4753552 0.19625257 -0.009578634 -0.21143754 -0.2975842 -0.6396286 -0.4618782
-0.47161707 -0.22488214 0.3311828 -0.24168518 -0.25844163 -0.5741946 -0.52683604 0.46361804

bias f4 [10]
00000000: c445 febc f833 3c3d 93c9 393d 607c 1cbe
00000010: e474 20bd 7165 413d b200 68be c1c7 d53d
00000020: 8ba5 eb3a 65d6 fe3c
-0.031039126 0.045948 0.04535825 -0.1528182 -0.039173976 0.047215883 -0.22656515 0.10438491
0.0017978413 0.03110809
